model_dir/vrae.pth (torch, 294670 bytes, 15 tensors)

encoder.model.weight_ih_l0 f4 [360, 1]
0	0xbe07050f	-0.13185523
1	0x3c950674	0.018191554
2	0xbdbcc435	-0.09217111
3	0x3cec29a0	0.028828442
4	0xbc6d9881	-0.014501692
5	0x3e0e01a4	0.13867813
6	0x3e148d38	0.14506996
7	0xbdeb25fc	-0.11481854
8	0xbdc9366b	-0.098248325
9	0xbe11f036	-0.1425179
10	0x3e1a06e1	0.15041687
11	0xbd93205c	-0.071839064
12	0xbe0ba4c1	-0.13637067
13	0xbe27aff1	-0.1637571
14	0xbe6a7deb	-0.22899596
15	0x3e636c39	0.22209252
16	0x3e15cbe7	0.14628564
17	0x3d017614	0.03160675
18	0xbe0de254	-0.13855869
19	0x3ea3cff5	0.31994596
20	0xbd7dda07	-0.061975505
21	0x3d86bceb	0.06579002
22	0xbc1cbd6a	-0.009566644
23	0xbd945338	-0.07242435
24	0x3d428109	0.04748634
25	0xbb818533	-0.003952646
26	0x3e70d9bc	0.23520559
27	0x3d6dde54	0.058073357
28	0xbdc94053	-0.09826722
29	0xbd32203a	-0.043487765
30	0x3d898f31	0.06716765
31	0x3decc2ec	0.11560616
32	0xbde3f757	-0.11131161
33	0xbdd2513e	-0.10269402
34	0xbe412f01	-0.18865587
35	0xbdcadc75	-0.0990533
36	0xbe02a4e6	-0.12758216
37	0xbd4d6648	-0.05014637
38	0xbe3b2837	-0.1827706
39	0xbc46b204	-0.012127403
40	0x3d10bf02	0.03533841
41	0x3d242267	0.04007187
42	0x3e8fa91e	0.28058714
43	0xbe97b2de	-0.29628652
44	0x3e432e1d	0.1906056
45	0x3d5778fa	0.052605607
46	0xbca3114f	-0.019905714
47	0x3d58945f	0.052875873
48	0x3d5da935	0.054116447
49	0xbdb69ac8	-0.08916241
50	0xbd458f84	-0.04823257
51	0x3dbae001	0.091247566
52	0x3e42a36c	0.19007653
53	0x3e09446c	0.13405007
54	0x3cc88d9f	0.024481593
55	0xbe388f82	-0.18023494
56	0x3e1c2fd4	0.1525262
57	0xbe8f1e86	-0.27952975
58	0xbd784c53	-0.060619663
59	0xbda08242	-0.07837345
60	0xbc598bfa	-0.013278002
61	0xbe658ca4	-0.22416931
62	0x3d97db4d	0.07414875
63	0xbdc44593	-0.09583583
64	0x3d1a1442	0.037616976
65	0xbd5f25eb	-0.05447952
66	0xbd87c6c0	-0.066297054
67	0x3e2478bf	0.16061686
68	0x3da76bd7	0.08174866
69	0x3d3f037e	0.04663419
70	0xbd285de3	-0.041105162
71	0x3e4fd091	0.20294406
72	0x3ccd014a	0.025025029
73	0xbdb7c6a6	-0.08973436
74	0xbe69409b	-0.22778551
75	0xbe68ee4b	-0.22747152
76	0x3cdcc756	0.02695052
77	0x3dbe501e	0.09292625
78	0xbdd88081	-0.10571385
79	0x3dd00499	0.10157127
80	0x3db1668e	0.08662139
81	0xbdeac647	-0.114636
82	0x3cf4b21e	0.02987009
83	0x3e855a5b	0.26045498
84	0xbd240f1a	-0.040053464
85	0x3da03c6b	0.07824024
86	0xbc366cb1	-0.0111343125
87	0x3d9b936b	0.07596477
88	0xbd14b667	-0.036306765
89	0xbe206e0b	-0.15666978
90	0xbd85d41b	-0.065345965
91	0xbe0af309	-0.13569273
92	0xbdafc4c8	-0.08582455
93	0x3e2a3c5e	0.16624591
94	0x3d476a31	0.048685256
95	0x3dff93de	0.12479375
96	0x3ced868f	0.028994827
97	0xbcf94a50	-0.030430943
98	0xbca31285	-0.019906292
99	0x3d06d387	0.032916572
100	0x3e1aeacd	0.15128632
101	0x3cb64d9f	0.02225381
102	0xbe434e82	-0.19072917
103	0xbd9f509b	-0.07779046
104	0x3d2aab1c	0.04166709
105	0xbe5ae639	-0.21376885
106	0x3b906ec7	0.004407737
107	0x3e0253b9	0.1272725
108	0xbe8979bf	-0.26850697
109	0x3ecbcddc	0.39805496
110	0x3ca233b2	0.01980004
111	0x3d4ec0bb	0.05047677
112	0xbe11e858	-0.14248788
113	0xbcc52c85	-0.02406908
114	0x3d93a92a	0.0721
115	0xbd3618b7	-0.044457164
116	0x3bfde31e	0.0077480217
117	0x3e8393d1	0.25698712
118	0x3cc87fea	0.024475057
119	0xbd1a24b4	-0.03763266
120	0x3dc581f3	0.096439265
121	0x3d763c99	0.060116384
122	0xbddddedd	-0.108335234
123	0x3dcb9b19	0.09941692
124	0xbec8a6cb	-0.39189753
125	0x3d8108e1	0.06300522
126	0xbb461f09	-0.00302309
127	0x3dcec538	0.1009621
128	0xbe5af788	-0.21383488
129	0xbd60cf37	-0.054885115
130	0xbd015a0e	-0.031580023
131	0xbe2a75b5	-0.16646464
132	0x3e8b7747	0.2723944
133	0xbe7f120a	-0.24909225
134	0x3e8fbd53	0.2807413
135	0x3ded480e	0.11586009
136	0x3e128442	0.14308265
137	0x3dbd4aaf	0.092427604
138	0xbc24659d	-0.010033992
139	0xbdb61bf5	-0.08892051
140	0xbdf76289	-0.12079341
141	0x3e356571	0.17714478
142	0x3e1368df	0.14395474
143	0xbbd07ef0	-0.0063627884
144	0x3df5c963	0.12001302
145	0xbe817138	-0.25281692
146	0x3e3c660d	0.18398304
147	0xbe4ebd6f	-0.2018945
148	0xbea45fbb	-0.32104287
149	0x3d9270ed	0.07150445
150	0xbdf9f91f	-0.12205719
151	0x3b4337b7	0.0029787847
152	0x3bacbf72	0.0052718455
153	0xbdc053bc	-0.09390971
154	0x3e015738	0.12630928
155	0xbd4616fb	-0.04836176
156	0x3cd522c7	0.02601756
157	0x3d91acb5	0.071130194
158	0xbdc17736	-0.09446566
159	0x3e895513	0.2682272
160	0x3dbcc1ef	0.092166774
161	0x3edf1f50	0.43578577
162	0x3e78040f	0.24220298
163	0xbd29b9dc	-0.041437015
164	0xbdf9af09	-0.121915884
165	0xbe07db8a	-0.13267341
166	0x3d6eb403	0.05827714
167	0x3e5049c5	0.20340641
168	0x3d9fca1d	0.07802222
169	0xbe04f837	-0.12985311
170	0x3e19f5ad	0.15035124
171	0x3d3a74b9	0.04552147
172	0xbe62bf68	-0.22143328
173	0x3e2fdbe9	0.17173733
174	0x3d6a70f7	0.057236638
175	0xbde2e783	-0.110793136
176	0x3db81e08	0.08990103
177	0x3dae86e3	0.08521821
178	0xbbcc20f9	-0.0062295166
179	0xbe74f16b	-0.23920219
180	0xb8e9166b	-0.000111144815
181	0xbea978b4	-0.33099902
182	0xbea19cba	-0.31564885
183	0xbc3fe42e	-0.011712117
184	0x3d69ee8c	0.05711226
185	0xbe688b71	-0.22709443
186	0xbe1cae32	-0.15300825
187	0x3dc01315	0.093786396
188	0xbdbf0809	-0.093277045
189	0x3e60ab51	0.21940352
190	0x3daa2f83	0.083098434
191	0xbdc2fe16	-0.09521119
192	0x3c18ecf1	0.009333835
193	0x3e0c71c2	0.1371527
194	0x3d948f20	0.072538614
195	0xbd754d4c	-0.05988817
196	0xbd0a158d	-0.03371196
197	0xbdf79731	-0.12089384
198	0x3d08f131	0.033433143
199	0x3e0b49bd	0.13602348
200	0xbeb8dcbb	-0.36105904
201	0x3ddb0086	0.10693459
202	0xbdb46ca7	-0.08809786
203	0x3dafefff	0.085906975
204	0xbe18734b	-0.14887731
205	0x3cb4eb15	0.022084752
206	0xbc598699	-0.0132767195
207	0x3e88e729	0.2673886
208	0xbe69c44d	-0.22828789
209	0xbd92ccfb	-0.07168003
210	0x3d479521	0.048726205
211	0x3e5c9519	0.21541251
212	0xbccb6458	-0.024828121
213	0x3e353930	0.17697597
214	0x3e2f66ba	0.17129031
215	0xbd582bf3	-0.05277629
216	0xbd8d9763	-0.0691364
217	0x3d3d48b2	0.046211906
218	0xbd47218b	-0.048615973
219	0xbd88f61d	-0.066875674
220	0x3e70b7b8	0.23507583
221	0xbb92456e	-0.004463843
222	0x3de11032	0.10989417
223	0x3e340a7d	0.17582126
224	0x3dbe5bd2	0.09294857
225	0xbd96acc9	-0.07357175
226	0xbe209e61	-0.15685417
227	0x3c976a59	0.018483328
228	0xbd1d1968	-0.038354307
229	0xbd46cfac	-0.048537895
230	0xbd5a00b7	-0.053223338
231	0x3da845be	0.08216427
232	0x3e03bb2f	0.12864374
233	0xbe271691	-0.16317202
234	0xbe1b6b89	-0.1517774
235	0x3e443cb9	0.19163789
236	0xbd2b54f4	-0.041829064
237	0xbda59907	-0.08085828
238	0xbdb92046	-0.09039359
239	0x3dace51f	0.08442139
240	0x3da48096	0.08032338
241	0xbd6c608e	-0.05770927
242	0xbe4d4fcb	-0.2004997
243	0x3d8a2059	0.06744451
244	0x3e932aeb	0.2874368
245	0xbd16e8d7	-0.036843147
246	0x3d2e880a	0.042610206
247	0x3e821458	0.25406146
248	0x3dc7a3e5	0.09748057
249	0x3e589c56	0.21153387
250	0x3e220999	0.15823974
251	0xbea4f371	-0.3221698
252	0xbe63ce68	-0.22246706
253	0x3e780807	0.24221812
254	0x3d9fc987	0.0780211
255	0x3cc95468	0.02457638

encoder.model.weight_hh_l0 f4 [360, 90]
0	0x3e33aa0d	0.17545338
1	0x3d9b6898	0.07588309
2	0x3df01eed	0.117246486
3	0x3df0dae5	0.11760501
4	0xbce7a2da	-0.028275896
5	0xbcf95750	-0.030437142
6	0xbdd9c818	-0.10633868
7	0xbd991515	-0.07474724
8	0x3cd62d44	0.026144631
9	0xbd242ea4	-0.040083542
10	0xbe400c66	-0.1875473
11	0x3e2ded23	0.16984992
12	0xbe672467	-0.2257248
13	0xba694c5b	-0.00088996225
14	0x3e1108f7	0.14163576
15	0xbda25d31	-0.07927931
16	0xbddbc6cb	-0.10731276
17	0x3db7d9b8	0.089770734
18	0x3d216e96	0.039412104
19	0xbabd7a2a	-0.0014455963
20	0x3dc07627	0.09397536
21	0xbdd86db3	-0.105677985
22	0x3e2d14b3	0.16902427
23	0xbd5cbfeb	-0.053893965
24	0x3d6515ce	0.055928998
25	0xbdd75fa0	-0.10516286
26	0x3e20a8c7	0.15689383
27	0x3e002f94	0.1251815
28	0xbe19e370	-0.15028167
29	0xbc0de09c	-0.008659508
30	0x3d579bdc	0.052638873
31	0x3e0a1d14	0.13487655
32	0x3c4dfa42	0.012571873
33	0x3c834e02	0.016028408
34	0xbdc42a3b	-0.09578367
35	0x3c80202d	0.015640343
36	0xbdec28cb	-0.11531218
37	0x3d198732	0.037482448
38	0xbd28b8a3	-0.04119171
39	0xbe129502	-0.14314654
40	0x3af85eb7	0.0018949126
41	0x3e495aee	0.19663593
42	0x3e38b115	0.18036301
43	0xbc8f65a9	-0.01750453
44	0x3e4f51fb	0.20246117
45	0x3d542d41	0.05180097
46	0x38b95bf7	8.838617e-05
47	0xbd7bf4cd	-0.061512757
48	0xbc8b90ae	-0.017036762
49	0xbd19ddee	-0.037565164
50	0xbe6707fa	-0.22561637
51	0x3e25dfb7	0.16198622
52	0x3d53f1f0	0.0517444
53	0xbda6d9a2	-0.08146979
54	0xbdef5af5	-0.116872706
55	0xbd9e5c44	-0.07732442
56	0x3ce57f74	0.028014876
57	0xbd46fe50	-0.048582375
58	0xbe0b853a	-0.1362504
59	0x3e1ab661	0.15108635
60	0x3e0a8737	0.13528143
61	0xbdb5b534	-0.088724524
62	0x3c9978fa	0.018734444
63	0xbcd772c6	-0.026299845
64	0xbdf414c3	-0.119180225
65	0xbe09f628	-0.13472807
66	0x3e1c7d69	0.15282215
67	0xbd23eaf7	-0.040019
68	0x3d5ff633	0.054678153
69	0x3e080933	0.13284759
70	0xbcffa1eb	-0.031205138
71	0x3cfc8af4	0.030827977
72	0xbc57df7b	-0.0131758405
73	0xbd7538e0	-0.059868693
74	0xbddc55ad	-0.10758529
75	0xbd85aeb0	-0.065274596
76	0xbdb49a97	-0.08818548
77	0xbdd3e5c7	-0.10346561
78	0xbcbf27d5	-0.023334423
79	0x3d59a303	0.053133976
80	0x3e24ee0d	0.16106434
81	0x3de2821d	0.110599734
82	0x3e072a23	0.13199668
83	0x3d818e5b	0.0632598
84	0x3d9b0f1c	0.07571241
85	0x3e0062e3	0.12537722
86	0x3e03ea3a	0.12882319
87	0xba3ae276	-0.0007129082
88	0xbe0d37cd	-0.13790818
89	0xbbdbdacf	-0.0067094336
90	0x3d5e8370	0.054324567
91	0x3d948231	0.072513945
92	0x3e226f23	0.15862708
93	0x3d593ce3	0.05303658
94	0xbdf3140d	-0.11869059
95	0x3d2463aa	0.04013411
96	0xbd3a0922	-0.045418866
97	0xbc84f92c	-0.016232096
98	0xbd5d949f	-0.054096814
99	0xbe0f6c22	-0.14006093
100	0xbd54a4ca	-0.051914968
101	0x3cdbbc44	0.02682317
102	0x3c02edc5	0.007991259
103	0xbd2f807b	-0.042847138
104	0xbd82ecc7	-0.06392818
105	0x3d131058	0.03590426
106	0xbde1d868	-0.11027604
107	0xbd3caa89	-0.046061072
108	0xbd292047	-0.041290548
109	0x3d8d6f0a	0.06905945
110	0xbdff539f	-0.12467121
111	0xbcb91249	-0.022591727
112	0xbd040e20	-0.032240033
113	0xbe0c479b	-0.1369919
114	0xbd82a528	-0.06379157
115	0xbd0200d8	-0.031739086
116	0x3d8bda83	0.06828787
117	0x3d64d8a3	0.055870663
118	0xbd6b33e3	-0.05742253
119	0xbdb42ab6	-0.08797209
120	0x3da047b5	0.07826177
121	0xbdc8fedb	-0.09814235
122	0x3d2bdd53	0.041959118
123	0xbd8d83ec	-0.06909928
124	0xbd559f39	-0.0521538
125	0x3cb3df33	0.021957016
126	0xbdd078e5	-0.10179309
127	0xbd8f87ee	-0.070083484
128	0x3bd77cb8	0.006576147
129	0x3d4d2961	0.05008829
130	0xbda04d51	-0.07827247
131	0x3e1a9473	0.15095691
132	0x3cd60186	0.026123773
133	0xbd0965cc	-0.033544347
134	0x3db71ec1	0.08941413
135	0x3d511488	0.05104497
136	0x3d62c6bd	0.055365313
137	0x3be79c99	0.0070682284
138	0xbceaacdc	-0.028646879
139	0x3ada2ae5	0.0016644864
140	0xbd95e065	-0.073181905
141	0xbcb7a374	-0.022416808
142	0xbdbe65b6	-0.092967436
143	0x3db323d4	0.08747068
144	0x3d3287c9	0.043586526
145	0xbcfc63e1	-0.030809345
146	0x3d603e78	0.054747075
147	0x3e4c9d12	0.19981793
148	0xbca624d8	-0.02028124
149	0x3d55bac4	0.052180067
150	0x3ddbb28c	0.107274145
151	0xbd76bb06	-0.060236953
152	0x3d8ffd90	0.07030785
153	0xbd3474bd	-0.044056643
154	0x3d684391	0.05670506
155	0xbd2a4495	-0.04156931
156	0x3d8df819	0.069320865
157	0x3d15dde5	0.03658857
158	0x3d445186	0.04792931
159	0x3db69d8c	0.089167684
160	0xbba37802	-0.0049886713
161	0xbd0d5d25	-0.034512658
162	0x3d2c0b23	0.04200281
163	0x3d10e06f	0.035370287
164	0xbe05cecd	-0.1306717
165	0x3c782e78	0.015147798
166	0x3bbad054	0.005701104
167	0xbd840e47	-0.06448036
168	0xbc99da2a	-0.018780787
169	0x3d78c402	0.060733803
170	0xbdc25a3f	-0.09489869
171	0x3e084ca6	0.13310489
172	0x3d1bfd62	0.03808344
173	0xbd124557	-0.03571066
174	0x3c9f72cf	0.019463925
175	0xbd56d876	-0.052452527
176	0xbc2295cc	-0.00992341
177	0x3b89d7b8	0.004206624
178	0xbd536d97	-0.051618185
179	0x3d27b3a6	0.04094281
180	0x3c5cda06	0.013479715
181	0x3e4019ac	0.18759793
182	0x3d9f5467	0.0777977
183	0x3d527533	0.0513813
184	0xbcaf4c9e	-0.021398839
185	0xbe19c467	-0.15016328
186	0xbddce79b	-0.10786363
187	0xbdc8a3e9	-0.097968884
188	0x3df633b4	0.1202158
189	0xbda9ed29	-0.08297188
190	0xbd9ccc4a	-0.076561525
191	0xbd152438	-0.036411494
192	0xbdd7ec5a	-0.10543127
193	0xbda21bdc	-0.0791547
194	0xbcab93c8	-0.020944491
195	0xbdce9bb5	-0.100882925
196	0xbde7dd5d	-0.113215186
197	0xbd93e5d0	-0.07221568
198	0xbddc4f97	-0.10757368
199	0xbcc5f219	-0.024163293
200	0xbda74d29	-0.08169014
201	0xbdc9db7c	-0.098563164
202	0x3bbfc972	0.0058528716
203	0xbdce7953	-0.100817345
204	0x3d79ad41	0.060956243
205	0xbd8b9cea	-0.06817038
206	0x3cd8281f	0.026386319
207	0x3d93ef21	0.072233446
208	0xbe135585	-0.14388092
209	0xbacb9bd1	-0.0015534108
210	0x3dd7cdb7	0.10537284
211	0x3c9d5bbc	0.019208781
212	0x3ce4446e	0.027864661
213	0xbd8b048f	-0.06787979
214	0xbdebf055	-0.11520449
215	0xbcada885	-0.02119852
216	0xbd7126e8	-0.058874995
217	0x3d45b8e2	0.04827202
218	0xbcc999b7	-0.02460943
219	0x3bacb5c4	0.0052706916
220	0xbd9f322d	-0.07773242
221	0xbc79e87b	-0.015253182
222	0x3d861199	0.06546325
223	0xbc4d4029	-0.012527504
224	0x3dc49581	0.09598828
225	0xbca0030a	-0.0195327
226	0xbd846c5c	-0.064659804
227	0x3c0f8db2	0.00876181
228	0xbd2f497c	-0.04279469
229	0xbcf98111	-0.030457051
230	0x3d7159ca	0.05892352
231	0xb936107b	-0.00017363012
232	0x3d3224af	0.043492015
233	0x3c21d8e6	0.009878373
234	0x3ccb64bc	0.024828307
235	0xbcd2d143	-0.02573455
236	0x3c2c025b	0.010498608
237	0xbd007709	-0.03136352
238	0x3c349cf5	0.01102375
239	0x3e02de9c	0.12780231
240	0x3d216daa	0.039411224
241	0x3cf7790b	0.030209085
242	0x3d850375	0.064948
243	0xbcd1372e	-0.025539007
244	0xbd36b98e	-0.044610552
245	0x3de68d1a	0.11257382
246	0x3e020967	0.12698899
247	0xbb77e917	-0.0037828141
248	0x3cadf11a	0.02123313
249	0x3b488b08	0.0030600447
250	0xbdc0d684	-0.094159156
251	0xbe0deae8	-0.13859141
252	0xbdc12336	-0.09430544
253	0x3d606170	0.054780424
254	0xbd4ffabf	-0.05077624
255	0x3d6d1221	0.057878617

encoder.model.bias_ih_l0 f4 [360]
0	0xbbc5be2c	-0.006034633
1	0xbd691a3b	-0.05690978
2	0x3daac27a	0.08337875
3	0x3cb60dac	0.022223316
4	0x3d8f68df	0.070024244
5	0x3dce42bb	0.100713216
6	0xbca3082d	-0.01990136
7	0xbc8b6148	-0.01701416
8	0x3cbfb10b	0.02339985
9	0xbd9a1fa3	-0.075255655
10	0xbcaddb1b	-0.021222642
11	0x3cdbd73e	0.026836034
12	0x3d39a9b3	0.045327853
13	0x3d1193ae	0.03554123
14	0x3cd6e85c	0.026233844
15	0x3d983838	0.07432598
16	0x3cef8cfb	0.02924203
17	0x3cc487fd	0.023990626
18	0xbd6b27bd	-0.057410944
19	0xbd8539ff	-0.065052025
20	0x3da2ce55	0.07949511
21	0x3daefdf3	0.08544531
22	0x3d52bacd	0.05144768
23	0x3d9fd7fd	0.07804868
24	0x3de603a1	0.11231161
25	0x3dce4b28	0.10072929
26	0x3dc93153	0.09823861
27	0x3db1c9ac	0.08681044
28	0x3e1ec1d7	0.15503632
29	0x3d4dce2f	0.05024546
30	0xb9a3688d	-0.0003116768
31	0x3ddb5428	0.10709411
32	0x3ddb9285	0.10721306
33	0x3da33341	0.0796876
34	0xbd8142eb	-0.06311592
35	0x3e24352b	0.16035907
36	0x3e0e75f0	0.13912177
37	0x3dd60203	0.104496025
38	0xbc261359	-0.010136449
39	0x3dbfa126	0.093569085
40	0x3c4c58b8	0.012472324
41	0xbca33273	-0.019921517
42	0xbc23dd74	-0.010001529
43	0xbd01a255	-0.031648953
44	0xbd93c4c5	-0.07215265
45	0x3db3e213	0.087833546
46	0x3c3da514	0.011575002
47	0x3bbca766	0.00575726
48	0x3c4c23ef	0.012459739
49	0xbd12cc76	-0.03583952
50	0x3c27a22d	0.010231537
51	0x3be9721e	0.0071241995
52	0xbce1066c	-0.027468883
53	0x3d7802c7	0.060549524
54	0xbbc066f1	-0.0058716466
55	0x3d9c5fc8	0.07635456
56	0x3dc13dc3	0.09435608
57	0x3c9ad8b0	0.018902153
58	0x3e1a726d	0.15082712
59	0x3d888419	0.06665821
60	0x3dc6105a	0.096710876
61	0x3bb7c9f5	0.005608792
62	0x3d252908	0.040322334
63	0x3d2550be	0.040360205
64	0x3e085d8d	0.13316937
65	0xbcbd03ca	-0.023073096
66	0x3daa7756	0.08323543
67	0xbdaba181	-0.08380414
68	0x3e085993	0.1331542
69	0x3dc09b09	0.094045706
70	0x3d982513	0.07428946
71	0x3e3003a2	0.17188886
72	0x3d8a471b	0.067518435
73	0xbd888b23	-0.06667163
74	0xbd8c8775	-0.06861774
75	0x3e042cdc	0.12907737
76	0xbcedb667	-0.02901764
77	0xbd69eb33	-0.05710907
78	0x3d56df51	0.052459065
79	0xbce3a0d4	-0.02778665
80	0x3c881d6c	0.016615592
81	0x3d2f156f	0.04274505
82	0x3df5e40b	0.12006386
83	0x3d8b1704	0.06791499
84	0xbcf06b63	-0.029348081
85	0x3d440df0	0.047864854
86	0xbdfb8639	-0.1228146
87	0x3cc9f42a	0.02465256
88	0x3d5879ad	0.052850414
89	0xbc4f2083	-0.012642029
90	0x3d578071	0.052612726
91	0x3d8ce360	0.06879306
92	0xbca6ea8e	-0.020375516
93	0x3dc7cb77	0.09755605
94	0x3ca6603f	0.020309566
95	0x3e1753fc	0.14778131
96	0x3dc7fbc5	0.09764818
97	0x3b5b723f	0.0033484844
98	0x3df91d76	0.12163822
99	0x3e4b7834	0.19870073
100	0x3da1e7b8	0.07905525
101	0x3e5e30b3	0.21698265
102	0x3cb0c8ca	0.021580119
103	0x3de4af2e	0.111662254
104	0x3d52b5d1	0.051442925
105	0x3de602df	0.11231016
106	0x3df0ff55	0.11767451
107	0x3d2a156c	0.041524336
108	0xbd2543ce	-0.040347867
109	0x3d43f2cc	0.04783897
110	0x3db61b2b	0.08891901
111	0x3db013a8	0.08597499
112	0x3e074901	0.13211443
113	0x3c415374	0.011799682
114	0x3d54bf3c	0.051940188
115	0x3dcc89b9	0.09987206
116	0x3e02eb6e	0.12785122
117	0x3d05a54e	0.03262835
118	0x3e1534d0	0.14570928
119	0x3e0e2db8	0.13884628
120	0x3da7fb79	0.082022615
121	0x3d8d3afd	0.06896017
122	0x3ddd28b9	0.10798783
123	0xbd7461ca	-0.05966357
124	0xbdac26c7	-0.08405834
125	0x3de4b7a6	0.11167841
126	0x3c02ff80	0.007995486
127	0x3dbf31e8	0.09335691
128	0x3cc94784	0.024570234
129	0x3e123beb	0.1428067
130	0x3df16ff5	0.11788932
131	0x3dc26422	0.09491755
132	0xba0cb1b9	-0.0005367059
133	0x3cf98d57	0.030462904
134	0x3cdf6ea3	0.027274435
135	0x3e5a9da1	0.21349193
136	0x3d87f4fa	0.066385224
137	0x3da16747	0.07881027
138	0x3e2b07c4	0.16702181
139	0x3e1bb453	0.15205507
140	0x3d804bd6	0.062644646
141	0x3d97453b	0.073862515
142	0xbda88a2d	-0.0822948
143	0x3e319f53	0.17345934
144	0xbca3198f	-0.019909648
145	0x3d76b927	0.06023517
146	0xbd2ea3dc	-0.042636737
147	0x3e03b6bb	0.12862675
148	0x3e00a8c4	0.12564379
149	0x3d04ffff	0.0324707
150	0x3e12fbb3	0.14353828
151	0x3da0f38a	0.078589514
152	0x3df7fa33	0.121082686
153	0x3d8d224e	0.06891309
154	0x3e0f59fa	0.13999167
155	0x3d30c650	0.043157876
156	0xbd0a0922	-0.033700116
157	0xbc9f3763	-0.01943559
158	0x3dbd6f97	0.092498
159	0x3d1dbe71	0.038511697
160	0x3e1e88dd	0.15481897
161	0x3c8eaaff	0.017415522
162	0x3d182d75	0.037152726
163	0xbc174284	-0.009232167
164	0x3dd18890	0.10231125
165	0x3dc74659	0.097302146
166	0x3d853246	0.065037295
167	0x3d746612	0.059667654
168	0x3e01d87e	0.12680241
169	0x3dd22e59	0.10262746
170	0xbcadba4a	-0.021206994
171	0x3d32505f	0.04353368
172	0x3d3afca8	0.045651108
173	0xbdb799b2	-0.08964862
174	0x3d5aba55	0.053400356
175	0xbcdc43e3	-0.02688784
176	0xbba416ab	-0.005007585
177	0x3db9e938	0.09077686
178	0xbcdba20c	-0.026810668
179	0x3cf22747	0.029559745
180	0x3bf05e55	0.007335464
181	0x3c14bed8	0.009078704
182	0x3d954ffc	0.072906464
183	0x3df3dd28	0.119074166
184	0xbd158731	-0.03650588
185	0x3c576888	0.013147481
186	0xbd5df139	-0.054185126
187	0xbd8d422d	-0.06897388
188	0x3dc23375	0.09482471
189	0x3db4497e	0.0880308
190	0x3d470ae5	0.048594374
191	0x3e14c353	0.14527635
192	0xbc9473d7	-0.018121643
193	0x3d60a729	0.054846916
194	0x3e09a823	0.13443045
195	0xbe08c153	-0.13354997
196	0xbdb1efef	-0.08688342
197	0xbdd6da2e	-0.10490833
198	0xbd8aad5f	-0.06771349
199	0x3deda225	0.11603192
200	0x3c870124	0.016480036
201	0xbdc21ea4	-0.094785005
202	0xbdb96acc	-0.09053573
203	0x3c9457c9	0.018108265
204	0x3ddd878c	0.10816869
205	0xbe06f680	-0.1317997
206	0x3dcdba09	0.10045249
207	0xbc64d224	-0.013966117
208	0x3d2fafdd	0.042892326
209	0xbdbbf18e	-0.09176932
210	0x3c56319e	0.013073353
211	0x3df0de07	0.11761098
212	0x3ddba7a2	0.10725333
213	0xbde463a8	-0.111518204
214	0xbdcc2b69	-0.09969217
215	0x3d73a428	0.059482723
216	0xbdad4df9	-0.08462138
217	0x3e0cd1b0	0.13751864
218	0x3db0a278	0.086247385
219	0xbd74d40a	-0.05977253
220	0xbdbc8ef3	-0.09206953
221	0x3cd20167	0.025635434
222	0xbd3fb83a	-0.04680655
223	0xbbf3fdd8	-0.007446032
224	0xbb0824e4	-0.0020773942
225	0x3d865aa8	0.0656026
226	0x3c2e6b39	0.010645681
227	0xbb808799	-0.0039224145
228	0x3c157115	0.009121199
229	0xbe06011b	-0.13086359
230	0xbd8b6f81	-0.06808377
231	0x3e2fa0be	0.17151162
232	0x3c8af01e	0.0169602
233	0xbdc022ad	-0.09381614
234	0xbdc5ece8	-0.09664327
235	0xbd41e9d2	-0.04734213
236	0x3d60ce18	0.054884046
237	0xbc91423b	-0.017731776
238	0xbd8ec855	-0.06971804
239	0x3d00b10c	0.031418845
240	0x3e017b2e	0.12644646
241	0x3de3752c	0.11106333
242	0x3d92cc6d	0.071678974
243	0xbd91e3d8	-0.07123536
244	0x3db9fc03	0.090812705
245	0xbd387d57	-0.04504141
246	0x3e0580b8	0.13037384
247	0x3d386097	0.04501399
248	0x3df7e250	0.121037126
249	0x3d934f47	0.07192855
250	0x3cbc6c21	0.023000779
251	0x3bf569f8	0.007489439
252	0xbdea9f37	-0.11456149
253	0xbc9e46a5	-0.019320795
254	0x3d532f67	0.05155888
255	0xbc080b5f	-0.008303492

encoder.model.bias_hh_l0 f4 [360]
0	0xbc39ddab	-0.011344354
1	0x3d85ebaa	0.0653909
2	0xbcaee462	-0.021349136
3	0xbdc6e6af	-0.09711968
4	0xbc7562c8	-0.014977165
5	0xbd6b575d	-0.057456363
6	0x3db7982d	0.08964572
7	0x3d449b3a	0.047999598
8	0x3c1e99b7	0.009680203
9	0x3cd10d7d	0.025519127
10	0x3c620475	0.013795008
11	0x3e03f6ce	0.12887117
12	0x3bd60f34	0.006532574
13	0x3d92bd37	0.07164996
14	0x3d3db54d	0.04631548
15	0x3ce30bf7	0.027715666
16	0x3da14665	0.07874755
17	0x3cdcdb81	0.026960136
18	0x3cc5bda6	0.024138283
19	0xbd5fb237	-0.05461332
20	0xbd59d809	-0.053184543
21	0x3da75e69	0.08172304
22	0xbdb0e2b4	-0.0863699
23	0xbd3c290d	-0.045937587
24	0xbd8b1b22	-0.067922845
25	0x3b922b27	0.0044607106
26	0x3c445afd	0.011984584
27	0x3d1c7997	0.038201895
28	0x3e31349f	0.1730523
29	0xbd3b6ded	-0.04575913
30	0xbd8c7cc8	-0.06859738
31	0xbd2b3801	-0.041801456
32	0xbcb8ec2f	-0.022573559
33	0xbd81de5c	-0.0634124
34	0xbe114781	-0.14187433
35	0x3e37d309	0.17951597
36	0xbcb1d0cf	-0.021706013
37	0x3db7ee51	0.08981002
38	0xbdca057a	-0.09864326
39	0xbd9696f1	-0.073530085
40	0x3e134715	0.14382584
41	0x3dc0d9a3	0.09416511
42	0xbda91949	-0.08256776
43	0xbd0da7bc	-0.034583792
44	0x3d1fb341	0.03898931
45	0x3db6949f	0.08915066
46	0xbcbf750f	-0.023371248
47	0x3e007e42	0.12548164
48	0xbd8a0627	-0.06739455
49	0x3e03e6ad	0.12880965
50	0x3cb4bac4	0.022061713
51	0x3e26174b	0.16219823
52	0xbd028ed9	-0.03187451
53	0xbd9c1c13	-0.07622542
54	0x3e17a520	0.14809084
55	0xbd7441a8	-0.059632927
56	0x3de45ea6	0.11150865
57	0xbb3196a9	-0.0027097857
58	0x3e28f6eb	0.16500442
59	0x3d1147df	0.035468932
60	0xbd0b167f	-0.033957
61	0x3c6dd3db	0.014515842
62	0xbe1c0ce9	-0.152393
63	0x3b989daa	0.004657467
64	0x3de3386e	0.110947475
65	0xbd29184a	-0.04128293
66	0xbd29c390	-0.04144627
67	0x3c287589	0.010281929
68	0x3d9fcd83	0.0780287
69	0x3c9dda3d	0.019269103
70	0x3dae1a02	0.08501054
71	0x3e0efd92	0.13963917
72	0x3c5e143a	0.013554627
73	0xbd21da08	-0.03951457
74	0xbb6b6e8e	-0.003592405
75	0x3d10ae0a	0.035322227
76	0xbde14c41	-0.110008724
77	0xbaee7bb6	-0.0018194828
78	0xbd1efe51	-0.038816754
79	0x3cd5f36a	0.026117045
80	0xbd82b711	-0.063825734
81	0x3cad8e66	0.021186065
82	0x3d4764f8	0.048680276
83	0xbdbeb421	-0.093117006
84	0x3d5c5a70	0.053797185
85	0x3d52a199	0.051423643
86	0xbc3bed08	-0.011470087
87	0x3c27d365	0.0102432715
88	0x3c4de5fd	0.0125670405
89	0x3c373251	0.01118143
90	0x3da65456	0.081215546
91	0x3e1846cd	0.14870758
92	0x3daf0bee	0.08547197
93	0xbce34206	-0.027741443
94	0x3dfe8527	0.124277405
95	0xbd31c43f	-0.043400045
96	0xbdc054c0	-0.09391165
97	0x3bbc9365	0.0057548755
98	0x3e15b959	0.14621486
99	0x3e3f4633	0.18679123
100	0x3c43eeb5	0.011958768
101	0x3e2ca7a8	0.16860831
102	0x3e1bb89b	0.1520714
103	0x3cd497f2	0.02595136
104	0x3cf1f02c	0.029533468
105	0x3e1fe14f	0.15613292
106	0xba240848	-0.00062573375
107	0x3c5c4945	0.013445203
108	0xbc70106a	-0.014652351
109	0xbd7cdfdd	-0.06173693
110	0x3dc230f8	0.09481996
111	0x3e037e6e	0.12841198
112	0x3d03be15	0.0321637
113	0x3cb735c7	0.02236451
114	0x3d87c3c6	0.06629138
115	0xbbc04e26	-0.005868691
116	0x3e215994	0.15756828
117	0xbd595e66	-0.05306854
118	0x3df13489	0.117775984
119	0x3c201a29	0.009771862
120	0xbcc3f3d9	-0.023919987
121	0x3dbf81ad	0.093509056
122	0xbcde3331	-0.02712402
123	0x3cb85c2a	0.022504885
124	0xbd8af163	-0.06784322
125	0x3ddb4d02	0.107080474
126	0x3d8af8c8	0.067857325
127	0xbd82f9ec	-0.06395325
128	0x3d2960a8	0.041351944
129	0x3d408f45	0.047011632
130	0x3de7b18e	0.11313163
131	0x3cdb6547	0.026781691
132	0x3d89ece7	0.06734639
133	0x3e0654eb	0.13118331
134	0x3bbd163e	0.0057704737
135	0x3e4f7b5d	0.20261903
136	0x3cf33616	0.029688876
137	0xbb840c4d	-0.0040297867
138	0x3dc9e93a	0.098589376
139	0x3dab6685	0.083691634
140	0x3d1ffec2	0.039061315
141	0x3d3c706f	0.046005663
142	0xbd23f72a	-0.040030636
143	0x3d643b11	0.055720393
144	0x3e0bc506	0.13649377
145	0x3e0b4301	0.13599779
146	0x3de05f1c	0.10955641
147	0x3d877793	0.06614604
148	0x3d342ed8	0.043989986
149	0x3dd448db	0.103654586
150	0x3e1378cc	0.14401549
151	0x3e03a980	0.12857628
152	0x3e0a6c17	0.13517796
153	0x3d76c3d3	0.060245346
154	0xbbecc842	-0.007226021
155	0x3e306902	0.17227557
156	0x3d714010	0.058898985
157	0xbcbc27e7	-0.022968246
158	0xbda0896f	-0.078387134
159	0x3c9eab50	0.019368798
160	0x3d8639e4	0.065540105
161	0x3ddb60d0	0.10711825
162	0xbc9279b1	-0.017880293
163	0xbd0704bf	-0.03296351
164	0x3e0f349b	0.13984911
165	0x3cb808a1	0.022465052
166	0x3d335315	0.043780405
167	0xbd334355	-0.043765385
168	0x3d34f0f9	0.044175122
169	0x3d657582	0.056020267
170	0xbd06504a	-0.032791413
171	0xbd58a287	-0.052889373
172	0x3e0c349b	0.13691942
173	0xbbedce27	-0.0072572413
174	0x3dd0df08	0.1019879
175	0x3dd3f29c	0.103490084
176	0x3ded7130	0.115938544
177	0x3e0f2b68	0.13981402
178	0x3e2da3dd	0.1695704
179	0xbba9c76d	-0.005181244
180	0xbd2dd19b	-0.042436223
181	0x3cbfd051	0.023414763
182	0xbdbbc7cf	-0.0916897
183	0x3ca22f44	0.019797929
184	0xbd1fbc86	-0.03899815
185	0xbdc0e73c	-0.094191045
186	0xbc80ccae	-0.015722599
187	0xbd8de15f	-0.06927752
188	0x3d896a6a	0.0670975
189	0x3d246d44	0.040143266
190	0xbdaa8da7	-0.08327799
191	0x3d1e28a0	0.03861296
192	0x3c7dec1c	0.015498187
193	0x3c9b56d0	0.018962294
194	0x3d846316	0.06464212
195	0xbdccc4bc	-0.099984616
196	0x3d5dc0a6	0.054138802
197	0xbd2206b2	-0.039557166
198	0xbd6e49b7	-0.05817577
199	0x3cf79f2e	0.03022727
200	0xbdc68376	-0.09693043
201	0xbc088d4f	-0.008334472
202	0x3db2bbdd	0.08727238
203	0xbd6b96d6	-0.057516895
204	0x3d0d8d83	0.034558784
205	0xbc4cb575	-0.012494435
206	0xbd1f49b9	-0.038888667
207	0x3da90fba	0.08254953
208	0x3da5dfcf	0.08099329
209	0xbb5d3e3e	-0.0033759023
210	0x3caf361a	0.021388102
211	0x3d73abd0	0.059490025
212	0x3d9a4045	0.0753179
213	0x3da82b4d	0.08211384
214	0xbd1ccbe2	-0.038280375
215	0xbd688477	-0.056766953
216	0x3c400707	0.011720425
217	0x3d031edd	0.032011855
218	0x3ce27698	0.02764444
219	0xbe0a9efd	-0.13537212
220	0x3d922a67	0.07136994
221	0x3e20d2ad	0.15705366
222	0x3dfd5ce9	0.12371237
223	0xbcab9912	-0.020947013
224	0x3d079115	0.033097345
225	0x3cb86b0e	0.022511985
226	0xbd9fec51	-0.07808746
227	0xbd5baf0c	-0.053633735
228	0x3d917609	0.071025915
229	0xbd1dd461	-0.03853262
230	0xbdbe3f4a	-0.09289415
231	0x3e445ceb	0.1917607
232	0x3d7ae4f4	0.061253503
233	0xbdcbd709	-0.09953124
234	0xbd60c3bf	-0.054874178
235	0xbcef4bf2	-0.029211018
236	0xbd8467b9	-0.06465096
237	0x3c2e175d	0.010625687
238	0xbd1e1bd4	-0.038600758
239	0xbd7ce732	-0.061743923
240	0x3d854f3a	0.06509252
241	0x3e03b983	0.12863736
242	0x3d94c856	0.072647735
243	0xbce22314	-0.027604617
244	0x3dee1cc3	0.116265796
245	0x3e08978f	0.13339065
246	0xbb65358f	-0.003497455
247	0xbd6c4fea	-0.0576934
248	0x3e14abda	0.14518681
249	0x3df7157a	0.12064643
250	0xbd508ae6	-0.050913714
251	0xbd428878	-0.047493428
252	0xbd4d70ab	-0.050156277
253	0xbcac11cf	-0.021004586
254	0xbcfa0619	-0.030520486
255	0x3b46a586	0.0030311062

lmbd.hidden_to_mean.weight f4 [20, 90]
0	0x3e2ec7f2	0.1706846
1	0xbe5f36e1	-0.21798278
2	0x3d123336	0.03569337
3	0xbcc5e5fb	-0.024157515
4	0x3e1f192e	0.15536949
5	0xbd920f71	-0.071318515
6	0xbd51e7fd	-0.051246632
7	0x3e77ad26	0.24187145
8	0xbe40f772	-0.18844393
9	0x3e225bf7	0.15855394
10	0xbe44e298	-0.19227064
11	0x3ce28119	0.02764945
12	0x3e6122f2	0.21985987
13	0x3db0a353	0.086249016
14	0xbdf185a3	-0.11793067
15	0xbde0e529	-0.10981209
16	0x3e5ddfba	0.21667376
17	0xbe111311	-0.1416743
18	0xbd75a3e8	-0.059970766
19	0xbe614c19	-0.22001685
20	0xbc397d7b	-0.011321421
21	0xbc4097c9	-0.011754938
22	0xbd12ec53	-0.035869908
23	0xbe398300	-0.18116379
24	0xbd6af5f8	-0.05736348
25	0xbd9a5d1d	-0.07537291
26	0x3e4c5cb3	0.19957237
27	0x3ec7dab5	0.39034048
28	0xbe1b7ac8	-0.15183556
29	0x3dc89d76	0.09795658
30	0xbd89ef24	-0.067350656
31	0x3dc0e04c	0.09417781
32	0x3e55eb4c	0.2089054
33	0xbdae28a1	-0.08503843
34	0x3dc1f9de	0.094714865
35	0xbd57cf1d	-0.052687753
36	0xbc71d1a9	-0.0147594595
37	0xbde99de2	-0.11407067
38	0x3e29340c	0.1652376
39	0xbdd22f40	-0.102629185
40	0xbccbbfd7	-0.02487175
41	0xbdb20362	-0.086920515
42	0x3c3490a2	0.011020811
43	0xbe6b905a	-0.23004285
44	0x3e64d169	0.22345509
45	0xbdfd850f	-0.123788945
46	0xbdb1c45c	-0.08680031
47	0x3e0a6d71	0.13518311
48	0x3ceb34cc	0.028711699
49	0x3dfc87ce	0.1233059
50	0x3d95bb0e	0.073110685
51	0xbc909419	-0.017648743
52	0xbe4f6266	-0.2025238
53	0xbe10506e	-0.14093181
54	0x3e485d6d	0.19566889
55	0x3e2f6305	0.17127617
56	0x3dca30ba	0.09872575
57	0xbe570bcb	-0.21000592
58	0x3d5a16f9	0.053244565
59	0xbd3259b1	-0.043542568
60	0xbe6f49ff	-0.23368071
61	0xbe7b966d	-0.24569102
62	0xbd516479	-0.05112121
63	0xbc09b566	-0.008405065
64	0x3ddc0c5f	0.10744547
65	0x3b84e92e	0.0040561175
66	0x3c9ef795	0.019405166
67	0xbe8a8e7a	-0.27061826
68	0x3de0718d	0.10959158
69	0xbde1dc7d	-0.11028383
70	0xbd580508	-0.052739173
71	0xbd4ae760	-0.049537063
72	0x3e012b26	0.12614116
73	0xbd339ad3	-0.043848824
74	0x3e60bb3a	0.21946421
75	0x3dd291a8	0.10281688
76	0xbdff54a6	-0.12467317
77	0x3e59387c	0.21212953
78	0xbd9ee206	-0.07757954
79	0x3dfb4be3	0.122703336
80	0xbdb6c60e	-0.08924495
81	0xbdeb30d8	-0.114839256
82	0x3ccaaea5	0.02474148
83	0x3e0c757a	0.13716689
84	0xbe8006f1	-0.25005296
85	0xbd341c69	-0.043972407
86	0xbddd0c9a	-0.10793419
87	0x3dafcb31	0.085836776
88	0xbe08153b	-0.13289349
89	0xbd91a7b7	-0.07112067
90	0xbe899a9e	-0.26875776
91	0xbeb26d92	-0.3484922
92	0xbea2015a	-0.31641656
93	0x3e121143	0.14264397
94	0x3e0186ae	0.12649032
95	0xbe99815c	-0.29981506
96	0xbca2c752	-0.019870434
97	0xbdb02a75	-0.08601848
98	0xbe75490e	-0.2395365
99	0x3ec51d2c	0.3849882
100	0xbe1c41cb	-0.15259473
101	0xbdf943d4	-0.1217114
102	0x3d9d90d3	0.07693639
103	0x3e55dfef	0.20886205
104	0xbdc013a0	-0.09378743
105	0xbe2bd80a	-0.16781631
106	0xbe5df10a	-0.2167398
107	0xbe56f04f	-0.20990108
108	0x3dc46fd5	0.09591643
109	0x3e5ad8c2	0.21371749
110	0xbe760754	-0.24026233
111	0xbe223a0e	-0.15842459
112	0xbc30b73f	-0.010785877
113	0xbc83f810	-0.016109496
114	0xbdadc74f	-0.08485281
115	0xbb5d2b80	-0.0033747852
116	0xbd1e3bd9	-0.038631294
117	0x3db739bc	0.08946559
118	0xbed8de27	-0.4235699
119	0xbd5c66c5	-0.053808946
120	0x3df6f5ef	0.12058627
121	0x3e607db7	0.21922956
122	0xbe10cd92	-0.14140919
123	0xbe26e567	-0.16298448
124	0x3ec5a339	0.38601092
125	0x3bd68e40	0.0065477192
126	0x3df67016	0.120330974
127	0xbe86b1e4	-0.26307595
128	0xbe391b44	-0.18076807
129	0x3e46c9bd	0.19412895
130	0x3e905dc9	0.28196552
131	0xbe414336	-0.18873295
132	0x3e5979fb	0.21237938
133	0x3e4d9eb0	0.20080066
134	0xbd20e8a7	-0.039284375
135	0x3dcf1904	0.10112193
136	0xbe22552a	-0.158528
137	0xbda49e30	-0.08037984
138	0xbe260ec1	-0.16216566
139	0x3de871af	0.113498084
140	0xbdf70ce6	-0.12063007
141	0x3d544f12	0.05183322
142	0xbe4d0f5a	-0.20025387
143	0xbe3fbf7c	-0.18725389
144	0xbe4e1b3f	-0.20127581
145	0x3e994106	0.2993242
146	0x3ea8c151	0.3295999
147	0x3e089641	0.13338567
148	0xbdf2f041	-0.11862231
149	0x3edb032f	0.42775866
150	0x3e2cb811	0.16867091
151	0xbd95e9a4	-0.07319954
152	0x3b90ad39	0.004415181
153	0x3d90e308	0.07074553
154	0xbc69a6b1	-0.014260934
155	0x3e0840ce	0.13305971
156	0xbdd6ea05	-0.104938544
157	0xbd9b2aad	-0.07576499
158	0xbe463d4b	-0.19359319
159	0x3df1a3e5	0.117988385
160	0xbe527360	-0.20551825
161	0x3d570add	0.052500594
162	0x3e226427	0.15858518
163	0x3efe8333	0.49709472
164	0xbe31e64e	-0.1737301
165	0x3e6e1a31	0.23252179
166	0xbd804045	-0.062622584
167	0x3d8ea1a7	0.069644265
168	0x3e98274b	0.29717478
169	0xbbd3025b	-0.00643949
170	0x3e831c3b	0.25607476
171	0x3d10fb95	0.035396177
172	0x3e3263a4	0.17420822
173	0xbc3f10fd	-0.011661765
174	0xbd413626	-0.04717078
175	0xbe7e6ff6	-0.24847397
176	0xbe284a0f	-0.16434501
177	0xbe613091	-0.21991183
178	0xbdaf9946	-0.085741565
179	0xbe3e1d5f	-0.18565892
180	0x3e9f109d	0.31067362
181	0x3e9fc440	0.31204414
182	0x3e415455	0.18879826
183	0x3ddb4e3e	0.10708283
184	0x3e02c114	0.12768966
185	0x3d0471dc	0.032335147
186	0x3e35d7a3	0.1775804
187	0xbe927109	-0.28601864
188	0x3dd3be6f	0.10339057
189	0xbe300ec2	-0.1719313
190	0x3e62d2d2	0.22150734
191	0xbe4551ab	-0.19269435
192	0xbbcf181c	-0.0063200127
193	0xbe568630	-0.20949626
194	0xbcd918de	-0.026501115
195	0xbd339c0e	-0.043849997
196	0x3d7b6174	0.061372235
197	0xbe2204e4	-0.15822178
198	0xbe30c934	-0.17264253
199	0xbe63ba28	-0.22238982
200	0xbea3efc8	-0.32018876
201	0xbd07b562	-0.033131965
202	0x3db5464f	0.08851301
203	0x3e5149a1	0.20438243
204	0x3d701006	0.05860903
205	0xbd95579c	-0.07292101
206	0xbea02daf	-0.31284854
207	0xbe0612e8	-0.1309315
208	0x3e8a000f	0.2695317
209	0xbe9be3a2	-0.30447108
210	0x3da1e4f7	0.07905
211	0xbd499414	-0.049213484
212	0xbdd627af	-0.10456788
213	0xbd29e6a9	-0.04147974
214	0xbe936415	-0.28787294
215	0x3bbd75b3	0.005781853
216	0xbda78dcd	-0.08181343
217	0x3e29da9d	0.165873
218	0xbe3c040e	-0.18360922
219	0x3df51f59	0.1196887
220	0x3ce35213	0.027749097
221	0x3cb14b5c	0.02164238
222	0xbe150978	-0.14554393
223	0x3b0bc09e	0.0021324526
224	0x3db513a1	0.088416345
225	0xbe311626	-0.17293605
226	0xbd47f0c3	-0.048813593
227	0xbddf5079	-0.10904021
228	0xbd55aef2	-0.052168794
229	0x3e82ffa4	0.25585663
230	0x3dff3118	0.12460536
231	0xbd032fdb	-0.03202806
232	0x3d92825f	0.071537726
233	0xbe9082b1	-0.2822471
234	0xbd188143	-0.03723265
235	0x3d3c4293	0.045961928
236	0x3e52f573	0.20601444
237	0xbe586703	-0.21133046
238	0xbd0e60cb	-0.034760278
239	0xbea92001	-0.3303223
240	0x3d58efc3	0.05296303
241	0x3dcbcdf5	0.099513926
242	0x3e816f55	0.25280252
243	0x3e43caf3	0.19120388
244	0xbd7cd662	-0.06172789
245	0x3e0b9744	0.13631922
246	0x3e216fb1	0.15765263
247	0xbca129fd	-0.019673342
248	0x3df39229	0.11893112
249	0xbe0cf7cf	-0.13766406
250	0xbe52e07f	-0.20593451
251	0x3eb63ea6	0.35594672
252	0x3e6aee43	0.22942452
253	0x3d7f07dd	0.06226336
254	0x3e4f2a95	0.20231088
255	0x3db6630c	0.089056104

lmbd.hidden_to_mean.bias f4 [20]
0	0xbb4bedb5	-0.0031117026
1	0xbd879600	-0.06620407
2	0x3de4db18	0.11174601
3	0xbd7aa794	-0.06119497
4	0x3d48d269	0.049028788
5	0x3c7f47fe	0.015581129
6	0x3ce3317b	0.027733555
7	0xbd0f270f	-0.03494936
8	0xbc2009be	-0.009767948
9	0xbdc07e5f	-0.093991034
10	0xbd5b3b12	-0.05352313
11	0x3e01beb7	0.12670408
12	0xbd4ea626	-0.05045142
13	0x3d1eb463	0.03874625
14	0xbded7a4f	-0.11595594
15	0x3d555a5d	0.05208813
16	0x3d0a39c7	0.033746507
17	0x3d988e38	0.07449001
18	0x3dbeb43c	0.09311721
19	0x3d058a37	0.032602515

lmbd.hidden_to_logvar.weight f4 [20, 90]
0	0xbe1c43c6	-0.15260229
1	0x3da50860	0.08058238
2	0xbe966cfe	-0.2938003
3	0xbe726b24	-0.23673683
4	0x3d9c5b84	0.07634643
5	0x3dd8daf3	0.10588636
6	0x3cf4cb6f	0.029882161
7	0x3e6ad03a	0.22930995
8	0xbdfaa9e6	-0.12239437
9	0x3c1e2a42	0.00965363
10	0x3e8620db	0.26196942
11	0xbe827642	-0.2548085
12	0x3d2f4898	0.04279384
13	0x3e24a0b4	0.16076928
14	0xbe34d748	-0.17660248
15	0x3dcddcad	0.10051856
16	0x3d0a69be	0.03379225
17	0x3e940aff	0.2891464
18	0x3ebd780e	0.37005657
19	0xbe56e7ec	-0.20986909
20	0x3e19dab1	0.1502483
21	0x3e69e94b	0.228429
22	0x3dcedee5	0.101011075
23	0x3c98c57d	0.018648857
24	0xbe61052d	-0.2197463
25	0x3e825d36	0.2546174
26	0x3ddf3d35	0.10900346
27	0x3df0abb5	0.117515005
28	0xb8ef4fa4	-0.00011411242
29	0xbe55aeff	-0.20867537
30	0xbe251c8a	-0.16124168
31	0xbcb04c4e	-0.02152076
32	0xbe915610	-0.28385973
33	0x3ea0d2d8	0.3141086
34	0x3e5c5d09	0.21519865
35	0x3b6f3a4e	0.0036503258
36	0x3d59f016	0.05320748
37	0x3d20b7de	0.03923785
38	0xbe0ce2e3	-0.13758425
39	0x3e94e5d5	0.29081598
40	0x3c92cd4e	0.017920163
41	0xbd560f75	-0.052260835
42	0xbe571bdd	-0.21006723
43	0xbe544752	-0.20730332
44	0xbe449b78	-0.19199932
45	0x3a5051e2	0.0007946772
46	0x3e398733	0.1811798
47	0x3e700e50	0.2344296
48	0xbe52d802	-0.20590213
49	0x3ea91a61	0.33027938
50	0x3e7e8067	0.24853669
51	0x3cf604eb	0.030031642
52	0xbeba7eb5	-0.36424795
53	0xbd019328	-0.03163448
54	0x3e39a595	0.18129571
55	0xbe17b9a3	-0.14816909
56	0x3e11da1d	0.1424336
57	0xbcf6049f	-0.0300315
58	0xbb7435e8	-0.0037263576
59	0xbe4e67f1	-0.20156838
60	0xbe2fd4d7	-0.17171036
61	0xbe2c40ee	-0.16821644
62	0xbcb7f7a1	-0.022456946
63	0x3c95811e	0.018250044
64	0x3e275a36	0.16343006
65	0xbe46bfb0	-0.1940906
66	0xbdcc29d0	-0.099689126
67	0x3e592618	0.21205938
68	0xbeabe897	-0.3357589
69	0xbe090cb2	-0.13383749
70	0xbbfeaa52	-0.0077717686
71	0x3e4e94c8	0.20173943
72	0x3dcc833f	0.09985971
73	0x3e39bfaf	0.18139528
74	0x3e67d03a	0.22638026
75	0x3bf16fa9	0.0073680473
76	0xbe950269	-0.291034
77	0xbd79b784	-0.06096603
78	0xbe36a305	-0.17835625
79	0xbeba275e	-0.3635816
80	0xbe7cb273	-0.24677448
81	0xbe8abee6	-0.2709877
82	0x3d0d668a	0.034521617
83	0xbeace3cd	-0.33767548
84	0xbeb9ebe7	-0.36312792
85	0xbe8c5f69	-0.27416542
86	0xbdf5d0fe	-0.12002753
87	0xbeac35f1	-0.33634904
88	0x3e083700	0.13302231
89	0xbb987a6e	-0.0046532666
90	0xbe2f93b5	-0.1714619
91	0xbe603d06	-0.21898279
92	0xbd834594	-0.06409755
93	0x3dda2c79	0.10653014
94	0x3da59b68	0.08086282
95	0x3ec2a031	0.3801284
96	0x3dcefb3b	0.10106512
97	0x3e10051b	0.14064448
98	0xbe9c8a32	-0.30574185
99	0x3eaed8b2	0.341497
100	0xbd88a26d	-0.06671605
101	0xbe924dbb	-0.2857493
102	0x3ecd5126	0.40100974
103	0x3ea91ea9	0.33031204
104	0xbeda5c54	-0.42648566
105	0x3ea0d3f7	0.31411716
106	0x3e4cef8c	0.20013255
107	0xbd17e8fc	-0.037087426
108	0x3e31e63e	0.17372987
109	0x3d913388	0.07089907
110	0x3d355fb0	0.044280708
111	0x3e4ec3a2	0.20191815
112	0xbe98004a	-0.2968772
113	0x3d685627	0.056722786
114	0xbd845518	-0.06461543
115	0xbb68e590	-0.003553722
116	0x3e62623c	0.22107786
117	0xbe1f0a46	-0.15531263
118	0xbe5d974c	-0.21639746
119	0x3d26ac14	0.04069145
120	0x3db4c470	0.0882653
121	0xbe3d64f5	-0.18495543
122	0xbebf504c	-0.3736595
123	0x3eb282c7	0.348654
124	0x3eb74fa1	0.3580294
125	0xbe83f880	-0.25775528
126	0x3e9c2aea	0.3050149
127	0xbe295573	-0.16536503
128	0xbe5f7c69	-0.21824802
129	0x3d7df423	0.062000405
130	0xbdddf470	-0.108376384
131	0xbe68ea0a	-0.22745529
132	0xbea56106	-0.32300586
133	0x3da10505	0.078622855
134	0xbe089e33	-0.13341598
135	0x3d874e21	0.06606699
136	0x3ea08fd2	0.31359726
137	0x3bbb581f	0.005717292
138	0xbdd08bbd	-0.10182903
139	0x3e291697	0.16512524
140	0x3db7eb8f	0.08980476
141	0xbe2e98ab	-0.17050426
142	0xbe4aa95f	-0.19791172
143	0x3dc5bcdf	0.09655165
144	0x3e9c7ccc	0.30563962
145	0xbd00098e	-0.031259112
146	0x3d0ef928	0.034905583
147	0xbc1d9b7d	-0.009619591
148	0x3d1c3a7f	0.038141724
149	0x3df65023	0.120270036
150	0xbdcc6281	-0.09979726
151	0x3ce2d6a2	0.027690236
152	0x3c5f7a1e	0.013639955
153	0x3d32154d	0.043477345
154	0xbe48918f	-0.19586776
155	0x3d074ae0	0.03303039
156	0xbc6f7cec	-0.014617186
157	0x3e3dbe70	0.18529677
158	0xbeb910b4	-0.36145556
159	0xbdf6cf37	-0.12051242
160	0x3e86e677	0.26347706
161	0x3d8a95a6	0.067668244
162	0xbd7bf420	-0.061512113
163	0x3e0e9e7e	0.13927647
164	0x3e947ff9	0.29003885
165	0xbeafc783	-0.34331903
166	0xbd9f38be	-0.077744946
167	0x3e2f23c4	0.17103487
168	0xbe9ec643	-0.31010637
169	0xbe7a869d	-0.24465413
170	0xbeb4ea8a	-0.3533519
171	0xbd166e46	-0.03672626
172	0xbead71f0	-0.3387599
173	0xbe9ef029	-0.31042603
174	0xbc1277ac	-0.008939665
175	0xbe4de68f	-0.20107482
176	0xbe828e50	-0.254992
177	0xbe96f920	-0.29486942
178	0xbc7558c5	-0.014974778
179	0xbe46a895	-0.19400246
180	0xbd27801b	-0.040893655
181	0xbc1c4323	-0.009537491
182	0xbc2d0015	-0.010559102
183	0xbd92715c	-0.07150528
184	0x3d2dd605	0.042440433
185	0x3e84008d	0.2578167
186	0x3e3f22b0	0.18665576
187	0x3e9c740d	0.3055729
188	0x3c572e4a	0.013133595
189	0x3db72ada	0.0894372
190	0x3dab7fea	0.08374007
191	0xbe9754fd	-0.29557028
192	0x3e53c709	0.20681395
193	0x3e15fe78	0.14647853
194	0xbe1e0e30	-0.154351
195	0xbd464b1c	-0.048411474
196	0x3e924ae6	0.28572768
197	0x3e907dba	0.28220922
198	0x3e939d41	0.28830913
199	0x3d7d0dc6	0.061780713
200	0xbe2b6e19	-0.16741218
201	0x3e91873a	0.28423482
202	0xbe41e4ac	-0.18934888
203	0x3e232c4c	0.15934867
204	0x3d8b93b1	0.06815279
205	0x3e960ea6	0.2930805
206	0xbe0e0b97	-0.13871609
207	0xbdf6f471	-0.12058342
208	0xbd5bd912	-0.05367381
209	0xbe230d99	-0.15923156
210	0x3cb9c71a	0.022677947
211	0x3ddfb497	0.10923117
212	0xbe9646a6	-0.29350775
213	0x3d8519e7	0.06499081
214	0x3eae57fc	0.34051502
215	0xbe8a6b87	-0.27035162
216	0x3ea3e687	0.32011816
217	0xbdeda710	-0.1160413
218	0x3c8acbc4	0.016942866
219	0x3eb162a0	0.34645557
220	0x3e43eff3	0.19134502
221	0xbe89651f	-0.26834962
222	0xbe4f28f7	-0.2023047
223	0x3d4bc933	0.049752425
224	0xbe4f7207	-0.20258342
225	0xbe860074	-0.2617222
226	0x3db38d5b	0.08767196
227	0x3cee3509	0.029078024
228	0xbe79948d	-0.24373074
229	0x3dd9893d	0.10621879
230	0x3e0f9f2b	0.14025562
231	0xbdea722e	-0.11447559
232	0xbec69954	-0.38788855
233	0x3d34275e	0.043982856
234	0x3b66896f	0.0035177132
235	0x3e3a32d7	0.18183456
236	0x3de94f73	0.11392107
237	0xbeb509a2	-0.35358912
238	0x3e6a09fc	0.22855371
239	0xbc763329	-0.015026846
240	0xbeb009bb	-0.34382424
241	0xbea1e51e	-0.31620115
242	0xbeb75e47	-0.35814115
243	0x3ed0562d	0.40690747
244	0x3df2fdb8	0.11864799
245	0x3d5897d4	0.05287917
246	0xbdcfd816	-0.10148637
247	0xbd08e44a	-0.03342084
248	0xbdcb1c5f	-0.09917521
249	0xbe86c871	-0.263248
250	0xbd35b529	-0.04436222
251	0x3ce13ffe	0.027496334
252	0x3eab0e72	0.33409458
253	0x3d1b569a	0.037924387
254	0x3eac6030	0.33667135
255	0xbec1f4c6	-0.3788206

lmbd.hidden_to_logvar.bias f4 [20]
0	0xbe494d90	-0.19658494
1	0xbe48d30a	-0.19611755
2	0xbe706630	-0.23476481
3	0xbe786767	-0.24258195
4	0xbe4f7e34	-0.20262986
5	0xbe6da5b1	-0.23207738
6	0xbdc8e1b1	-0.09808672
7	0xbe7d3a7f	-0.24729346
8	0xbe98c649	-0.2983878
9	0xbe90bdb2	-0.28269726
10	0xbe73acb0	-0.23796344
11	0xbe79760a	-0.24361435
12	0xbd4b75c0	-0.049672842
13	0xbe4fd921	-0.20297672
14	0xbe71e0d1	-0.23620917
15	0xbe9badcd	-0.30406037
16	0xbe7b034d	-0.24512978
17	0xbe7d8383	-0.24757199
18	0xbe16326f	-0.14667676
19	0xbdfc9072	-0.12332238

decoder.model.weight_ih_l0 f4 [360, 1]
0	0x3da0958b	0.07841023
1	0x3cbb27ef	0.02284619
2	0xbd367782	-0.044547565
3	0xbdb615d5	-0.08890883
4	0xbdbd2fab	-0.092376076
5	0xbc8ed779	-0.01743673
6	0x3dcde497	0.10053366
7	0x3d075fee	0.03305047
8	0xbc4e7928	-0.012602128
9	0x3c0fdc26	0.008780515
10	0xbc3f784e	-0.011686398
11	0x3d81353f	0.06308984
12	0x3dac592e	0.08415447
13	0x3d050ac6	0.032480977
14	0x3d678745	0.056525487
15	0xbd82622a	-0.063663796
16	0xbc79d7f7	-0.015249244
17	0xbb3b5ff5	-0.002859113
18	0x3da8d0af	0.08242928
19	0x3d4946eb	0.0491399
20	0x3c5df98d	0.013548267
21	0xbdcb6b11	-0.09932531
22	0xbd988bb8	-0.07448524
23	0xbccdaf24	-0.025107928
24	0xbdb9df34	-0.09075776
25	0x3d45214a	0.04812745
26	0x3dab7ce6	0.08373432
27	0xbd354f12	-0.04426486
28	0x3da9a1e1	0.08282829
29	0xbd48fc28	-0.0490686
30	0xbadce1be	-0.0016851944
31	0xbd21eb74	-0.039531186
32	0x3d43f3d5	0.04783996
33	0xbdc37aa3	-0.095448755
34	0xbdc4f01a	-0.09616108
35	0xbd13277d	-0.03592633
36	0xbd7a165e	-0.061056487
37	0x3dd57bbc	0.10423991
38	0xbce418b2	-0.027843807
39	0x3dbf1fed	0.09332261
40	0xbaf685ca	-0.0018808183
41	0x3dbf7be2	0.09349801
42	0x3dceb5d8	0.10093278
43	0xbd194bc6	-0.03742578
44	0xbd8cd223	-0.06876018
45	0x3da5bd45	0.08092741
46	0x3c605ac3	0.013693514
47	0x3cd66bbd	0.02617442
48	0x3d7ba888	0.06144002
49	0xbd980dbf	-0.07424497
50	0x3d240d8d	0.040051986
51	0xbcedf2e7	-0.029046489
52	0x3dc3d929	0.095629044
53	0x3b9ecd30	0.0048462376
54	0x3dc0534d	0.09390888
55	0x3cc31c5c	0.023817234
56	0x3dc0534d	0.09390888
57	0xbdcd6f29	-0.10030968
58	0xbdae08bb	-0.08497759
59	0x3d983607	0.0743218
60	0x3dbb4ee3	0.09145906
61	0x3d22bbe6	0.039729975
62	0x3dae4e96	0.08511083
63	0x3d8121dd	0.06305287
64	0x3c8a507f	0.016884087
65	0xbd7e9082	-0.062149532
66	0xbd91f23b	-0.0712628
67	0x3cf33dba	0.02969252
68	0x3cb33a04	0.02187825
69	0x3d67990f	0.056542452
70	0x3db6e6bf	0.0893073
71	0x3d0be4be	0.034153692
72	0xbd6ae1bc	-0.057344183
73	0xbd21cbf3	-0.03950114
74	0x3da0a892	0.07844652
75	0x3d00a2ab	0.031405132
76	0xbd84aec0	-0.064786434
77	0x3d908608	0.070568144
78	0x3d0587b5	0.032600123
79	0x3dc151bf	0.0943942
80	0x3d71a5b7	0.05899593
81	0xbdabd840	-0.08390856
82	0xbd870136	-0.06592028
83	0x3c7e8685	0.015535002
84	0xbcdc7432	-0.026910875
85	0xbc7463fa	-0.014916414
86	0xbdca46da	-0.09876795
87	0xbcd20e67	-0.025641633
88	0x3c8e01b4	0.017334796
89	0x3d09ca53	0.033640217
90	0xbda83091	-0.08212388
91	0x3d907e85	0.07055382
92	0xbd21fd33	-0.03954811
93	0xbdb3917c	-0.08767983
94	0xbd2c8b17	-0.042124834
95	0xbcd37537	-0.025812728
96	0xbd14a0f9	-0.036286328
97	0xbd9633c1	-0.0733409
98	0xbd9b2e3a	-0.075771764
99	0x3b4c8b1a	0.003121084
100	0x3cd0919c	0.025460057
101	0x3d879de9	0.06621916
102	0xbce1753c	-0.027521722
103	0x3dcfbd67	0.101435475
104	0x3b9fa61f	0.004872098
105	0x3daa7bba	0.0832438
106	0x3d6da322	0.058016904
107	0xbd39dcca	-0.045376576
108	0xbb5b850c	-0.003349605
109	0x3dc7f5ac	0.09763655
110	0xbc331f81	-0.010932804
111	0xbd501e66	-0.05081024
112	0xbd4b529b	-0.049639326
113	0xbc86f7d6	-0.0164756
114	0x3cbacde3	0.022803253
115	0xbdc35841	-0.095383175
116	0xbdbaaf27	-0.09115439
117	0x3dbb8316	0.09155862
118	0x3da8990f	0.082323186
119	0xbbc9f4b6	-0.006163205
120	0x3d318d43	0.04334761
121	0xbdd2ed43	-0.1029916
122	0xbd4619e2	-0.048364528
123	0x3c0caf3c	0.008586701
124	0x3cb2bbc3	0.021818047
125	0xbd0195be	-0.031636946
126	0xbdb5faba	-0.08885713
127	0xbcf8d172	-0.030373309
128	0xbdb840fb	-0.08996769
129	0x3ab32a85	0.0013669288
130	0xbc9e8d7f	-0.01935458
131	0xbc4dc2cc	-0.01255865
132	0x3d970ace	0.07375108
133	0x3dc955f4	0.098308474
134	0x3d0aac4f	0.033855733
135	0xbce974cf	-0.028498081
136	0x3dc203f7	0.094734125
137	0xbd143502	-0.036183365
138	0x3da36597	0.07978361
139	0xbdc6a01c	-0.09698507
140	0xbdc51e13	-0.09624877
141	0xbd8d9999	-0.06914062
142	0x3c71d1a5	0.014759456
143	0xbda010d7	-0.07815712
144	0x3d3eca40	0.0465796
145	0x3d0e1e74	0.03469701
146	0x3dabef27	0.08395224
147	0xbd439615	-0.04775055
148	0xbdc3a53e	-0.09553002
149	0x3d95a612	0.07307066
150	0x3d7da628	0.061926037
151	0xbd2e7ea0	-0.042601228
152	0xbc8bcb5d	-0.017064745
153	0x3cf6ef6f	0.030143468
154	0xbc32e394	-0.010918517
155	0x3d9a757a	0.07541938
156	0xbd570917	-0.052498903
157	0xbdaaeb54	-0.083456665
158	0xbc7a1a37	-0.015265039
159	0x3d95bfb3	0.07311954
160	0xbc5f7d75	-0.013640751
161	0x3cc50c2e	0.02405366
162	0xbdb85ddc	-0.09002277
163	0xbdd13f1d	-0.10217116
164	0xbd67098e	-0.056405596
165	0x3c4b712f	0.012417122
166	0x3dc34d09	0.09536178
167	0x3d6fc8fa	0.058541276
168	0x3cfb8933	0.03070507
169	0x3d25128f	0.040300902
170	0x3d07e78a	0.033179797
171	0x3da85657	0.08219593
172	0xbd217a5d	-0.039423335
173	0x3d8b9b01	0.06816674
174	0x3d826d47	0.06368499
175	0xbda087d2	-0.07838406
176	0xbdc9675b	-0.098341666
177	0xbd890b2c	-0.06691584
178	0x3cc46306	0.023973
179	0x3d3ce5b9	0.046117518
180	0x3bd36ace	0.006451941
181	0x3d9b1f38	0.07574314
182	0xbdcb981f	-0.09941124
183	0xbc51ee7d	-0.012813208
184	0x3d8595f5	0.06522743
185	0x3b5166ef	0.0031952222
186	0xbc349a3d	-0.011023101
187	0xbbb6defe	-0.005580782
188	0xbdc8917f	-0.09793376
189	0xbdc78952	-0.09742989
190	0x3dac479c	0.08412096
191	0x3d2d19bc	0.04226087
192	0xbdc30bff	-0.095237724
193	0xbd851d42	-0.06499721
194	0xbd95b17a	-0.073092416
195	0xbbbd6dd8	-0.0057809167
196	0x3d804f49	0.062651224
197	0x3dbfaad4	0.09358755
198	0x3da26e71	0.07931221
199	0x3d915f51	0.07098258
200	0xba8d7a33	-0.0010793864
201	0xbd8e9b7b	-0.06963249
202	0xbda9a343	-0.08283093
203	0x3dd2fe44	0.103024036
204	0x39b03b29	0.00033613414
205	0xbc1a737d	-0.009426949
206	0xbd55c69a	-0.052191354
207	0x3d4fa588	0.050694972
208	0xbc9b9d37	-0.018995864
209	0xbca778fa	-0.020443428
210	0xbd2aef19	-0.041731928
211	0x3c026a7c	0.007959958
212	0x3dbbe02a	0.09173615
213	0xbda3bfae	-0.079955444
214	0xbdc1c50d	-0.094614126
215	0x3d860a51	0.065449364
216	0xbd5b4e7c	-0.053541645
217	0xbbdd3102	-0.006750227
218	0x3ccd19fc	0.025036804
219	0x3dae55a2	0.08512427
220	0x3d1dd3f6	0.03853222
221	0x3d8fa130	0.07013166
222	0xbcc540e2	-0.02407879
223	0xbd2f5565	-0.042806048
224	0x3daa9783	0.0832968
225	0xbb745b20	-0.003728576
226	0x3b46c035	0.0030326967
227	0x3bb18b1a	0.0054181935
228	0xbdce7815	-0.100814976
229	0x3d023d51	0.031796757
230	0x3d82167d	0.063519455
231	0x3a87d90b	0.0010364366
232	0xbda1cea5	-0.079007424
233	0x3d822ceb	0.06356224
234	0x3daf7e4a	0.085690096
235	0xbd8fb4c8	-0.07016903
236	0x3c571fce	0.013130141
237	0x3bd1cd64	0.0064026583
238	0x3d25c168	0.04046765
239	0xbdb46d3c	-0.08809897
240	0xbd888645	-0.06666235
241	0x3d4ba825	0.049720902
242	0x3cc5bcd2	0.024137888
243	0x3cd68acf	0.026189236
244	0xbcf4e1f1	-0.029892894
245	0x3bfc8fb8	0.0077075623
246	0xbdbf1827	-0.093307786
247	0x3c36dbef	0.011160835
248	0x3c350649	0.011048862
249	0x3d10848b	0.035282653
250	0xbc8844b8	-0.01663433
251	0x3cc9aaf3	0.024617648
252	0x3dc13993	0.094348095
253	0x3d59e64d	0.053198148
254	0xbd89fdc9	-0.06737859
255	0xbda59db6	-0.080867216
